7767517
194 214
Input                    images                   0 1 images
Convolution              Conv_0                   1 1 images 606 0=32 1=3 3=2 4=1 5=1 6=864 8=2
ReLU                     Relu_1                   1 1 606 189
Pooling                  MaxPool_2                1 1 189 190 1=3 2=2 3=1 5=1
Split                    splitncnn_0              1 2 190 190_splitncnn_0 190_splitncnn_1
ConvolutionDepthWise     Conv_3                   1 1 190_splitncnn_1 191 0=32 1=3 3=2 4=1 5=1 6=288 7=32 8=101
Convolution              Conv_4                   1 1 191 192 0=60 1=1 5=1 6=1920 8=2
ReLU                     Relu_5                   1 1 192 193
Convolution              Conv_6                   1 1 190_splitncnn_0 194 0=60 1=1 5=1 6=1920 8=2
ReLU                     Relu_7                   1 1 194 195
ConvolutionDepthWise     Conv_8                   1 1 195 196 0=60 1=3 3=2 4=1 5=1 6=540 7=60 8=101
Convolution              Conv_9                   1 1 196 197 0=60 1=1 5=1 6=3600 8=2
ReLU                     Relu_10                  1 1 197 198
Concat                   Concat_11                2 1 193 198 199
ShuffleChannel           Reshape_16               1 1 199 204 0=2
Split                    splitncnn_1              1 2 204 204_splitncnn_0 204_splitncnn_1
Crop                     Slice_27                 1 1 204_splitncnn_1 215 -23309=1,0 -23310=1,60 -23311=1,0
Crop                     Slice_30                 1 1 204_splitncnn_0 218 -23309=1,60 -23310=1,120 -23311=1,0
Convolution              Conv_31                  1 1 218 219 0=60 1=1 5=1 6=3600 8=2
ReLU                     Relu_32                  1 1 219 220
ConvolutionDepthWise     Conv_33                  1 1 220 221 0=60 1=3 4=1 5=1 6=540 7=60 8=101
Convolution              Conv_34                  1 1 221 222 0=60 1=1 5=1 6=3600 8=2
ReLU                     Relu_35                  1 1 222 223
Concat                   Concat_36                2 1 215 223 224
ShuffleChannel           Reshape_41               1 1 224 229 0=2
Split                    splitncnn_2              1 2 229 229_splitncnn_0 229_splitncnn_1
Crop                     Slice_52                 1 1 229_splitncnn_1 240 -23309=1,0 -23310=1,60 -23311=1,0
Crop                     Slice_55                 1 1 229_splitncnn_0 243 -23309=1,60 -23310=1,120 -23311=1,0
Convolution              Conv_56                  1 1 243 244 0=60 1=1 5=1 6=3600 8=2
ReLU                     Relu_57                  1 1 244 245
ConvolutionDepthWise     Conv_58                  1 1 245 246 0=60 1=3 4=1 5=1 6=540 7=60 8=101
Convolution              Conv_59                  1 1 246 247 0=60 1=1 5=1 6=3600 8=2
ReLU                     Relu_60                  1 1 247 248
Concat                   Concat_61                2 1 240 248 249
ShuffleChannel           Reshape_66               1 1 249 254 0=2
Split                    splitncnn_3              1 2 254 254_splitncnn_0 254_splitncnn_1
Crop                     Slice_77                 1 1 254_splitncnn_1 265 -23309=1,0 -23310=1,60 -23311=1,0
Crop                     Slice_80                 1 1 254_splitncnn_0 268 -23309=1,60 -23310=1,120 -23311=1,0
Convolution              Conv_81                  1 1 268 269 0=60 1=1 5=1 6=3600 8=2
ReLU                     Relu_82                  1 1 269 270
ConvolutionDepthWise     Conv_83                  1 1 270 271 0=60 1=3 4=1 5=1 6=540 7=60 8=101
Convolution              Conv_84                  1 1 271 272 0=60 1=1 5=1 6=3600 8=2
ReLU                     Relu_85                  1 1 272 273
Concat                   Concat_86                2 1 265 273 274
ShuffleChannel           Reshape_91               1 1 274 279 0=2
Split                    splitncnn_4              1 3 279 279_splitncnn_0 279_splitncnn_1 279_splitncnn_2
ConvolutionDepthWise     Conv_92                  1 1 279_splitncnn_2 280 0=120 1=3 3=2 4=1 5=1 6=1080 7=120 8=101
Convolution              Conv_93                  1 1 280 281 0=116 1=1 5=1 6=13920 8=2
ReLU                     Relu_94                  1 1 281 282
Convolution              Conv_95                  1 1 279_splitncnn_1 283 0=116 1=1 5=1 6=13920 8=2
ReLU                     Relu_96                  1 1 283 284
ConvolutionDepthWise     Conv_97                  1 1 284 285 0=116 1=3 3=2 4=1 5=1 6=1044 7=116 8=101
Convolution              Conv_98                  1 1 285 286 0=116 1=1 5=1 6=13456 8=2
ReLU                     Relu_99                  1 1 286 287
Concat                   Concat_100               2 1 282 287 288
ShuffleChannel           Reshape_105              1 1 288 293 0=2
Split                    splitncnn_5              1 2 293 293_splitncnn_0 293_splitncnn_1
Crop                     Slice_116                1 1 293_splitncnn_1 304 -23309=1,0 -23310=1,116 -23311=1,0
Crop                     Slice_119                1 1 293_splitncnn_0 307 -23309=1,116 -23310=1,232 -23311=1,0
Convolution              Conv_120                 1 1 307 308 0=116 1=1 5=1 6=13456 8=2
ReLU                     Relu_121                 1 1 308 309
ConvolutionDepthWise     Conv_122                 1 1 309 310 0=116 1=3 4=1 5=1 6=1044 7=116 8=101
Convolution              Conv_123                 1 1 310 311 0=116 1=1 5=1 6=13456 8=2
ReLU                     Relu_124                 1 1 311 312
Concat                   Concat_125               2 1 304 312 313
ShuffleChannel           Reshape_130              1 1 313 318 0=2
Split                    splitncnn_6              1 2 318 318_splitncnn_0 318_splitncnn_1
Crop                     Slice_141                1 1 318_splitncnn_1 329 -23309=1,0 -23310=1,116 -23311=1,0
Crop                     Slice_144                1 1 318_splitncnn_0 332 -23309=1,116 -23310=1,232 -23311=1,0
Convolution              Conv_145                 1 1 332 333 0=116 1=1 5=1 6=13456 8=2
ReLU                     Relu_146                 1 1 333 334
ConvolutionDepthWise     Conv_147                 1 1 334 335 0=116 1=3 4=1 5=1 6=1044 7=116 8=101
Convolution              Conv_148                 1 1 335 336 0=116 1=1 5=1 6=13456 8=2
ReLU                     Relu_149                 1 1 336 337
Concat                   Concat_150               2 1 329 337 338
ShuffleChannel           Reshape_155              1 1 338 343 0=2
Split                    splitncnn_7              1 2 343 343_splitncnn_0 343_splitncnn_1
Crop                     Slice_166                1 1 343_splitncnn_1 354 -23309=1,0 -23310=1,116 -23311=1,0
Crop                     Slice_169                1 1 343_splitncnn_0 357 -23309=1,116 -23310=1,232 -23311=1,0
Convolution              Conv_170                 1 1 357 358 0=116 1=1 5=1 6=13456 8=2
ReLU                     Relu_171                 1 1 358 359
ConvolutionDepthWise     Conv_172                 1 1 359 360 0=116 1=3 4=1 5=1 6=1044 7=116 8=101
Convolution              Conv_173                 1 1 360 361 0=116 1=1 5=1 6=13456 8=2
ReLU                     Relu_174                 1 1 361 362
Concat                   Concat_175               2 1 354 362 363
ShuffleChannel           Reshape_180              1 1 363 368 0=2
Split                    splitncnn_8              1 2 368 368_splitncnn_0 368_splitncnn_1
Crop                     Slice_191                1 1 368_splitncnn_1 379 -23309=1,0 -23310=1,116 -23311=1,0
Crop                     Slice_194                1 1 368_splitncnn_0 382 -23309=1,116 -23310=1,232 -23311=1,0
Convolution              Conv_195                 1 1 382 383 0=116 1=1 5=1 6=13456 8=2
ReLU                     Relu_196                 1 1 383 384
ConvolutionDepthWise     Conv_197                 1 1 384 385 0=116 1=3 4=1 5=1 6=1044 7=116 8=101
Convolution              Conv_198                 1 1 385 386 0=116 1=1 5=1 6=13456 8=2
ReLU                     Relu_199                 1 1 386 387
Concat                   Concat_200               2 1 379 387 388
ShuffleChannel           Reshape_205              1 1 388 393 0=2
Split                    splitncnn_9              1 2 393 393_splitncnn_0 393_splitncnn_1
Crop                     Slice_216                1 1 393_splitncnn_1 404 -23309=1,0 -23310=1,116 -23311=1,0
Crop                     Slice_219                1 1 393_splitncnn_0 407 -23309=1,116 -23310=1,232 -23311=1,0
Convolution              Conv_220                 1 1 407 408 0=116 1=1 5=1 6=13456 8=2
ReLU                     Relu_221                 1 1 408 409
ConvolutionDepthWise     Conv_222                 1 1 409 410 0=116 1=3 4=1 5=1 6=1044 7=116 8=101
Convolution              Conv_223                 1 1 410 411 0=116 1=1 5=1 6=13456 8=2
ReLU                     Relu_224                 1 1 411 412
Concat                   Concat_225               2 1 404 412 413
ShuffleChannel           Reshape_230              1 1 413 418 0=2
Split                    splitncnn_10             1 2 418 418_splitncnn_0 418_splitncnn_1
Crop                     Slice_241                1 1 418_splitncnn_1 429 -23309=1,0 -23310=1,116 -23311=1,0
Crop                     Slice_244                1 1 418_splitncnn_0 432 -23309=1,116 -23310=1,232 -23311=1,0
Convolution              Conv_245                 1 1 432 433 0=116 1=1 5=1 6=13456 8=2
ReLU                     Relu_246                 1 1 433 434
ConvolutionDepthWise     Conv_247                 1 1 434 435 0=116 1=3 4=1 5=1 6=1044 7=116 8=101
Convolution              Conv_248                 1 1 435 436 0=116 1=1 5=1 6=13456 8=2
ReLU                     Relu_249                 1 1 436 437
Concat                   Concat_250               2 1 429 437 438
ShuffleChannel           Reshape_255              1 1 438 443 0=2
Split                    splitncnn_11             1 2 443 443_splitncnn_0 443_splitncnn_1
Crop                     Slice_266                1 1 443_splitncnn_1 454 -23309=1,0 -23310=1,116 -23311=1,0
Crop                     Slice_269                1 1 443_splitncnn_0 457 -23309=1,116 -23310=1,232 -23311=1,0
Convolution              Conv_270                 1 1 457 458 0=116 1=1 5=1 6=13456 8=2
ReLU                     Relu_271                 1 1 458 459
ConvolutionDepthWise     Conv_272                 1 1 459 460 0=116 1=3 4=1 5=1 6=1044 7=116 8=101
Convolution              Conv_273                 1 1 460 461 0=116 1=1 5=1 6=13456 8=2
ReLU                     Relu_274                 1 1 461 462
Concat                   Concat_275               2 1 454 462 463
ShuffleChannel           Reshape_280              1 1 463 468 0=2
Split                    splitncnn_12             1 3 468 468_splitncnn_0 468_splitncnn_1 468_splitncnn_2
ConvolutionDepthWise     Conv_281                 1 1 468_splitncnn_2 469 0=232 1=3 3=2 4=1 5=1 6=2088 7=232 8=101
Convolution              Conv_282                 1 1 469 470 0=232 1=1 5=1 6=53824 8=2
ReLU                     Relu_283                 1 1 470 471
Convolution              Conv_284                 1 1 468_splitncnn_1 472 0=232 1=1 5=1 6=53824 8=2
ReLU                     Relu_285                 1 1 472 473
ConvolutionDepthWise     Conv_286                 1 1 473 474 0=232 1=3 3=2 4=1 5=1 6=2088 7=232 8=101
Convolution              Conv_287                 1 1 474 475 0=232 1=1 5=1 6=53824 8=2
ReLU                     Relu_288                 1 1 475 476
Concat                   Concat_289               2 1 471 476 477
ShuffleChannel           Reshape_294              1 1 477 482 0=2
Split                    splitncnn_13             1 2 482 482_splitncnn_0 482_splitncnn_1
Crop                     Slice_305                1 1 482_splitncnn_1 493 -23309=1,0 -23310=1,232 -23311=1,0
Crop                     Slice_308                1 1 482_splitncnn_0 496 -23309=1,232 -23310=1,464 -23311=1,0
Convolution              Conv_309                 1 1 496 497 0=232 1=1 5=1 6=53824 8=2
ReLU                     Relu_310                 1 1 497 498
ConvolutionDepthWise     Conv_311                 1 1 498 499 0=232 1=3 4=1 5=1 6=2088 7=232 8=101
Convolution              Conv_312                 1 1 499 500 0=232 1=1 5=1 6=53824 8=2
ReLU                     Relu_313                 1 1 500 501
Concat                   Concat_314               2 1 493 501 502
ShuffleChannel           Reshape_319              1 1 502 507 0=2
Convolution              Conv_320                 1 1 507 508 0=96 1=1 5=1 6=44544 8=2
Swish                    Mul_322                  1 1 508 510
Split                    splitncnn_14             1 2 510 510_splitncnn_0 510_splitncnn_1
Interp                   Resize_324               1 1 510_splitncnn_1 515 0=1 1=2.000000e+00 2=2.000000e+00
Concat                   Concat_325               2 1 515 468_splitncnn_0 516
ConvolutionDepthWise     Conv_326                 1 1 516 609 0=328 1=3 4=1 5=1 6=2952 7=328 8=1
ReLU                     Relu_327                 1 1 609 519
Convolution              Conv_328                 1 1 519 612 0=96 1=1 5=1 6=31488 8=2
ReLU                     Relu_329                 1 1 612 522
Convolution              Conv_330                 1 1 522 523 0=96 1=1 5=1 6=9216 8=2
Swish                    Mul_332                  1 1 523 525
Split                    splitncnn_15             1 2 525 525_splitncnn_0 525_splitncnn_1
Interp                   Resize_334               1 1 525_splitncnn_1 530 0=1 1=2.000000e+00 2=2.000000e+00
Concat                   Concat_335               2 1 530 279_splitncnn_0 531
ConvolutionDepthWise     Conv_336                 1 1 531 615 0=216 1=3 4=1 5=1 6=1944 7=216 8=1
ReLU                     Relu_337                 1 1 615 534
Convolution              Conv_338                 1 1 534 618 0=96 1=1 5=1 6=20736 8=2
ReLU                     Relu_339                 1 1 618 537
Split                    splitncnn_16             1 2 537 537_splitncnn_0 537_splitncnn_1
ConvolutionDepthWise     Conv_340                 1 1 537_splitncnn_1 621 0=96 1=3 3=2 4=1 5=1 6=864 7=96 8=1
ReLU                     Relu_341                 1 1 621 540
Convolution              Conv_342                 1 1 540 624 0=96 1=1 5=1 6=9216 8=2
ReLU                     Relu_343                 1 1 624 543
BinaryOp                 Add_344                  2 1 543 525_splitncnn_0 544
ConvolutionDepthWise     Conv_345                 1 1 544 627 0=96 1=3 4=1 5=1 6=864 7=96 8=1
ReLU                     Relu_346                 1 1 627 547
Convolution              Conv_347                 1 1 547 630 0=96 1=1 5=1 6=9216 8=2
ReLU                     Relu_348                 1 1 630 550
Split                    splitncnn_17             1 2 550 550_splitncnn_0 550_splitncnn_1
ConvolutionDepthWise     Conv_349                 1 1 550_splitncnn_1 633 0=96 1=3 3=2 4=1 5=1 6=864 7=96 8=1
ReLU                     Relu_350                 1 1 633 553
Convolution              Conv_351                 1 1 553 636 0=96 1=1 5=1 6=9216 8=2
ReLU                     Relu_352                 1 1 636 556
BinaryOp                 Add_353                  2 1 556 510_splitncnn_0 557
ConvolutionDepthWise     Conv_354                 1 1 557 639 0=96 1=3 4=1 5=1 6=864 7=96 8=1
ReLU                     Relu_355                 1 1 639 560
Convolution              Conv_356                 1 1 560 642 0=96 1=1 5=1 6=9216 8=2
ReLU                     Relu_357                 1 1 642 563
Convolution              Conv_358                 1 1 537_splitncnn_0 564 0=27 1=1 5=1 6=2592 8=2
Reshape                  Reshape_359              1 1 564 576 0=1600 1=9 2=3
Permute                  Transpose_360            1 1 576 output 0=1
Convolution              Conv_361                 1 1 550_splitncnn_0 578 0=27 1=1 5=1 6=2592 8=2
Reshape                  Reshape_362              1 1 578 590 0=400 1=9 2=3
Permute                  Transpose_363            1 1 590 591 0=1
Convolution              Conv_364                 1 1 563 592 0=27 1=1 5=1 6=2592 8=2
Reshape                  Reshape_365              1 1 592 604 0=100 1=9 2=3
Permute                  Transpose_366            1 1 604 605 0=1
